{
  "input_scaling": {
    "mean": [
      1991.2278439693162,
      6.5118328708992985,
      7.0406397910886245
    ],
    "scale": [
      18.150828506048626,
      3.453363711880304,
      4.064457010107429
    ]
  },
  "station_mapping": {
    "58562": 0,
    "58464": 1,
    "58665": 2,
    "58457": 3,
    "58569": 4,
    "58472": 5,
    "58549": 6,
    "58667": 7,
    "58543": 8,
    "58646": 9,
    "58556": 10,
    "58477": 11,
    "58666": 12,
    "58647": 13,
    "58752": 14
  },
  "model_architecture": [
    {
      "class_name": "Dense",
      "config": {
        "name": "dense",
        "trainable": true,
        "dtype": "float32",
        "batch_input_shape": [
          null,
          3
        ],
        "units": 64,
        "activation": "relu",
        "use_bias": true,
        "kernel_initializer": {
          "class_name": "GlorotUniform",
          "config": {
            "seed": null
          }
        },
        "bias_initializer": {
          "class_name": "Zeros",
          "config": {}
        },
        "kernel_regularizer": null,
        "bias_regularizer": null,
        "activity_regularizer": null,
        "kernel_constraint": null,
        "bias_constraint": null
      },
      "weights": [
        [
          [
            … "class_name": "Dense",
      "config": {
        "name": "dense_1",
        "trainable": true,
        "dtype": "float32",
        "units": 64,
        "activation": "relu",
        "use_bias": true,
        "kernel_initializer": {
          "class_name": "GlorotUniform",
          "config": {
            "seed": null
          }
        },
        "bias_initializer": {
          "class_name": "Zeros",
          "config": {}
        },
        "kernel_regularizer": null,
        "bias_regularizer": null,
        "activity_regularizer": null,
        "kernel_constraint": null,
        "bias_constraint": null
      },
      "weights": [
        [
          [
            … "class_name": "Dense",
      "config": {
        "name": "dense_2",
        "trainable": true,
        "dtype": "float32",
        "units": 32,
        "activation": "relu",
        "use_bias": true,
        "kernel_initializer": {
          "class_name": "GlorotUniform",
          "config": {
            "seed": null
          }
        },
        "bias_initializer": {
          "class_name": "Zeros",
          "config": {}
        },
        "kernel_regularizer": null,
        "bias_regularizer": null,
        "activity_regularizer": null,
        "kernel_constraint": null,
        "bias_constraint": null
      },
      "weights": [
        [
          [
            … "class_name": "Dense",
      "config": {
        "name": "dense_3",
        "trainable": true,
        "dtype": "float32",
        "units": 5,
        "activation": "linear",
        "use_bias": true,
        "kernel_initializer": {
          "class_name": "GlorotUniform",
          "config": {
            "seed": null
          }
        },
        "bias_initializer": {
          "class_name": "Zeros",
          "config": {}
        },
        "kernel_regularizer": null,
        "bias_regularizer": null,
        "activity_regularizer": null,
        "kernel_constraint": null,
        "bias_constraint": null
      },
      "weights": [
        [
          [
            … "model_weights": []
}